models/ppo_agent.pth (torch, 743621 bytes, 32 tensors)

feature_extractor.network.0.weight f4 [256, 66]
00000000: 473a 0cbe 5253 063d fe68 e83d 625f 1ebc
00000010: 135c 9bba fcb1 903d 3e94 433d a510 9dbd
00000020: 9d92 7dbc 915e ebbd 19b3 dd3d 3334 f3bd
00000030: 2060 a93d 74dd 0bbe 9948 cabd 93ff e23d
00000040: c0ee cf3d 22e8 543d 95f2 353d 0462 483d
00000050: 48f6 e93d 278a 983c 4d97 953d 6c72 0bbe
00000060: f60d 12be 790e a83d b4ba 9ebd 6dda 10be
00000070: 2058 bd3c b211 b63d f99f 25be f22c babd
00000080: e6d4 a1bd e006 a03d 8931 ff3d 9615 fabd
00000090: 877c 883d 4355 82bd f077 d93c 351a d3bd
000000a0: e3b4 093e e336 03be f666 793d ef9e f0bd
000000b0: 41d5 513d 6203 0a3e 98fb a83d 36b0 10be
000000c0: e3f1 e7ba a33a 91bc 7edd b93b 8e87 50bd
000000d0: 6642 ebbd ee4b c73b 245a afbc 109c 303d
000000e0: 7cca efbd f820 003e a932 03be ca3e 63bd
000000f0: c135 4b3c d665 023e 997c 793c 0480 41bc
00000100: 390d 01be b668 d33d 519e fcbd 5231 ff3d
00000110: 5cae 323d 98e2 cdbc 2861 183d e03a 46bc
00000120: d80f c3bd 2c3f c63d 70ca c53d 1dd8 09be
00000130: dabc ccbd a07d 1cbd fa97 67bd 5c29 b5bd
00000140: 3aee be3d 74a4 693d beb4 f7bd 7236 c63d
00000150: cc47 afbd c893 873d ec8f b0bd 4ea4 f03d
00000160: 382c 73bc 6070 7dbd 9c95 9a3d 7de9 093e
00000170: 26bd c23d 004a 03ba c4d2 583d 3cf4 2b3d
00000180: 36e3 b33d 00e3 b03b b45c 453d c884 f5bc
00000190: 3aaf 1fbd dd99 07be 64fd a3bd d0b8 5a3c
000001a0: 7c01 da3d 4e82 9f3d d80b c43c a089 06bc
000001b0: bc57 2fbd d6a2 ef3d 7e32 ddbd b86a 10bd
000001c0: 3045 0b3d 188b dd3d a0c4 283c e82f b33c
000001d0: fe1c f53d 1156 a0bd f680 e13d 90d7 6b3c
000001e0: e825 cdbd 078e 8dbd 5df1 013e aa8e 903d
000001f0: a007 ab3d 88f8 183d 584d 9a3d aca9 adbc
00000200: f45d a1bd bf9b dabd 4001 d33d fc66 eabd
00000210: dd1d 29bd b79f 23bd 6087 09bd 3262 1dbe
00000220: c23d 4c3b bcbb 84bd 2cd1 ccbb 1495 96bd
00000230: 86e7 29be 5404 7ebd 0f8b 19be 85c8 e8bc
00000240: 12de c43c 656b e9bc da63 983d 5afc 24be
00000250: c312 49bc 305e babd efa1 933d cfef df3d
00000260: 9d72 943c 4cec 77bc dd89 a63d 265d 13be
00000270: bcc9 c03c 1b44 e1bd 9234 c63d 15e5 c5bd
00000280: 23f2 8b3d d197 6cbd ceea d0bd 0ef2 203d
00000290: 4f30 a0bc 7573 8dbd 244d 10be cbb9 e0bd
000002a0: 12a6 43bd 5cd6 4dbd 8814 d6bd a5b9 26be
000002b0: 8414 04be 2b5d dfbd 457d bfbd 87ea 61bd
000002c0: 0329 743d 889a 9ebd 38e2 b8bc b012 e1bd
000002d0: de5b d33d 7dc0 08be 1168 e4bd 77b5 81bc
000002e0: e8f6 293d 9700 313d deb7 283d a800 063d
000002f0: 7265 12be c5ab dfbd 78e2 02be c0f8 1f3c
00000300: f4ae efbc fc4f c53d e32c 9cbd 8125 4ebc
00000310: 47ae 193e 3a24 973d 7faf fc3d 9e71 2d3d
00000320: 8f0d 253d a56c 943c 866e f43d 1c1a bebd
00000330: dc41 b93d 0cf8 a8bc 4c0b ddbd 05d0 613d
00000340: d3a2 8e3c 46c8 96bd d9c8 bbbd 376e 2b3d
00000350: 55bc fb3c b887 f2bb eae9 503d fd95 073d
00000360: d13f 683c b8b8 2c3c 9381 dd3d 8cd0 89bc
00000370: f40c c53d e269 1bbc 13c3 193d 4419 46bc
00000380: 1b14 c53d 34e7 d33d 2b38 d8bc e9d4 033c
00000390: 3c2a e9bd 800f 45bd 8e32 88bd ce55 05bd
000003a0: 313a dd3d ee43 e6bc 3f21 babd b76a 1a3c
000003b0: d0da fdbd 4229 983c b8a8 ffbd c815 5dbd
000003c0: 1182 f3bc 5db8 ae3d bee0 dabd fa56 a4bd
000003d0: f219 b4bd 317c b3bc d829 b93d 5c9f 23bd
000003e0: 1aa4 5b3c 84f9 fcbd 2b99 d9bd 34ba a9bd
000003f0: a7d3 e53d 81c8 bfbd 1866 1fbd 2f66 98bc
-0.13694106 0.032794304 0.11348151 -0.009666296 -0.0011853002 0.07065198 0.047748797 -0.0766919
-0.01547685 -0.114926465 0.10825176 -0.118751906 0.082702875 -0.13658696 -0.09877128 0.11083903
0.1015296 0.05197919 0.044420797 0.0489216 0.114239275 0.018620564 0.07304249 -0.13617867
-0.14263138 0.082058854 -0.077504545 -0.14145823 0.02311331 0.08890094 -0.16174306 -0.09090604
-0.07901935 0.07813811 0.1246062 -0.122111484 0.06664377 -0.06363919 0.026546448 -0.10307733
0.13447909 -0.12813906 0.060889207 -0.11749064 0.051228765 0.13477853 0.08251113 -0.14129719
-0.0017695989 -0.017728155 0.005672156 -0.050910525 -0.11487274 0.0060820496 -0.021405287 0.043117583
-0.11708543 0.12512577 -0.12812294 -0.055479802 0.012402953 0.1273416 0.01522746 -0.011810306
-0.126027 0.103227064 -0.12334884 0.12460579 0.043623313 -0.025132462 0.03720203 -0.012098998
-0.09524506 0.09680018 0.096577525 -0.13461347 -0.09996958 -0.038205743 -0.05654142 -0.08845779
0.09322782 0.0570416 -0.12095021 0.09678353 -0.08558616 0.06619984 -0.08621201 0.11750089
-0.014842086 -0.061874747 0.07548067 0.13467975 0.095087335 -0.000500828 0.052935377 0.041980967
0.087835714 0.0053981543 0.04818411 -0.029970542 -0.03898547 -0.13242288 -0.08007315 0.013349727
0.10644814 0.077885255 0.023931429 -0.008211523 -0.04280828 0.1170098 -0.10800646 -0.035258025
0.03400153 0.10817546 0.010300785 0.02187343 0.119684204 -0.07828916 0.110109255 0.014394656
-0.10016996 -0.06911855 0.12689729 0.07058461 0.08351064 0.037346393 0.075342834 -0.02119907
-0.07879248 -0.106742375 0.10302973 -0.11445424 -0.041288245 -0.039947238 -0.03357637 -0.1536949
0.003116474 -0.0648112 -0.006250521 -0.07352653 -0.16592225 -0.062015846 -0.14994453 -0.028415928
0.024031673 -0.028493593 0.0744092 -0.1611189 -0.01227254 -0.09099996 0.07208621 0.10934412
0.018121058 -0.015132021 0.08131764 -0.14391002 0.023533694 -0.10999318 0.09677996 -0.096628346
0.06833293 -0.05776197 -0.102010354 0.03929334 -0.019554285 -0.06906787 -0.14091927 -0.10972937
-0.0477658 -0.050253257 -0.10453135 -0.16281755 -0.12898451 -0.10906442 -0.09350065 -0.055155303
0.059609424 -0.07744318 -0.022568807 -0.109898925 0.10320257 -0.13354678 -0.111526616 -0.0158336
0.041495234 0.043213453 0.041190974 0.03271547 -0.14296511 -0.10921434 -0.12781703 0.009763896
-0.029258229 0.096343964 -0.07625749 -0.012582184 0.15007888 0.073799565 0.12338161 0.042344682
0.040296134 0.018118212 0.11935143 -0.09282324 0.09045765 -0.02062609 -0.1079317 0.055130024
0.017411625 -0.07362418 -0.09169168 0.041853156 0.030729452 -0.007401433 0.051004328 0.033102024
0.014175371 0.010542087 0.1081573 -0.016823076 0.09621611 -0.009485694 0.037539553 -0.012090985
0.096229754 0.10346833 -0.02639397 0.008046367 -0.11385009 -0.048110485 -0.066502675 -0.032552533
0.10802115 -0.028108563 -0.090883724 0.009424857 -0.12395251 0.01857436 -0.124833524 -0.05397585
-0.029725106 0.08531258 -0.106873974 -0.08024402 -0.08794011 -0.021909805 0.09041184 -0.0399469
0.013405824 -0.12352279 -0.106249176 -0.082874686 0.1122201 -0.09364415 -0.038915724 -0.018603412

feature_extractor.network.0.bias f4 [256]
00000000: d06b 8bbc 0000 0000 0fdb 41bd f5d8 0bbc
00000010: 0214 8abc 9a27 24bc 3854 cdbc 9533 87bb
00000020: 99d6 bc3c 0d80 26bc 33db 08bd 0000 0000
00000030: 0177 aebc 734f febb f049 07bd 1dfe 993b
00000040: 0000 0000 10c9 99bc f653 8fbb 2982 03bb
00000050: aaa0 80bc 8ec1 afbc 92ed 04bd 0000 0000
00000060: 80f0 8dbc 0000 0000 c938 1ebb 5a8d 9ebc
00000070: d8e4 72bc aedb 3bbc 4d50 ab3b 1832 1abc
00000080: 762d 793c 336e 5fbb 80e3 73bc ad42 acb9
00000090: 9bb5 57bc 6415 aabc f9aa 1dbd fc1b e5bc
000000a0: 0000 0000 d9ad babc a4ba 6fbd bef5 47bb
000000b0: 4906 1bbd 0000 0000 eb33 49bc fd6b c2bc
000000c0: 56de 22bd 1516 d33c dff5 5fbc 91b2 44bb
000000d0: b57d 033d 7898 f5bc 5a6b 72bb 73d5 8fbc
000000e0: 8ecc 46bc 83ba 99bc 0000 0000 147b dabc
000000f0: 1377 9fbc 0e5a d6bc 213b 17bc ce80 e23c
00000100: 6af7 e73b 85c8 a9bb 2452 a93b 0000 0000
00000110: 0000 0000 0000 0000 0000 0000 788a babb
00000120: 0000 0000 0231 bfbc e1a0 cbbc 0000 0000
00000130: 6a06 473c 9bb9 bdbc 4741 08bd 7069 2ebc
00000140: 0000 0000 1321 78bc 0000 0000 8148 4dbc
00000150: 8899 6abc 7ed0 59bb 8912 22bc 1734 5fbc
00000160: c9e9 15bd 84ae 08bc 2288 243b 098c 77bc
00000170: 0000 0000 0e10 f9ba dce2 c8bc db8c cfbb
00000180: ad50 04bd 0000 0000 b795 943c 75fe acbc
00000190: 2600 00bd 0000 0000 246e 983b 8ed3 bfbb
000001a0: be17 92bc 0000 0000 0000 0000 7073 10bd
000001b0: a982 8cbc 0000 0000 0000 0000 c382 163b
000001c0: 0000 0000 93de e5bb c546 19bc a609 23bb
000001d0: 0000 0000 5a31 0fbc 85d7 bfbc 4921 dabc
000001e0: 23d7 e53a a616 de3c 0000 0000 0000 0000
000001f0: 0000 0000 1a23 c0bb 0000 0000 0000 0000
00000200: 0000 0000 f8fb ea3b 0000 0000 4706 9ebb
00000210: 30cd 833c 5621 53bd ecf4 593c cdbf a3bc
00000220: cf48 a9bb cd10 50bb 0000 0000 fcea cabb
00000230: 0000 0000 bc96 4fbc 0000 0000 b6e6 fe39
00000240: 0000 0000 0000 0000 fc93 bdbc 153d 293c
00000250: 6987 9cbc 0000 0000 3368 6cbc a8c2 81bc
00000260: fa75 d9ba a246 c1bc 91b7 b4bc e840 c8bc
00000270: 4f4c 4e3c f533 3abc 0000 0000 22a0 19ba
00000280: de70 b0bb 0ff4 adba 286a 47bb 0000 0000
00000290: d4d3 9fbc 0000 0000 da54 aabc eacf 6dbc
000002a0: 194d bdbc 0000 0000 cdcf e8bc 0000 0000
000002b0: e843 64bb dbf7 84bb 8bfb e6bc 0000 0000
000002c0: 3760 f6bc ba35 0bbd 49a9 36bc 0000 0000
000002d0: 0000 0000 0000 0000 fcab 243b 0000 0000
000002e0: 0000 0000 fc77 5bbc e0cf b4bc 0000 0000
000002f0: 0000 0000 588c 80bc 1729 88bc 0000 0000
00000300: c413 88bc 1522 d3bc 6ae2 83bc 7185 90bc
00000310: 2eb6 7abc e7f9 e8bc 2cd6 98bc ad72 dbbb
00000320: 0000 0000 0000 0000 0000 0000 0000 0000
00000330: d536 41bd 6888 ca3c 2c91 193c da0e 3bbc
00000340: 0000 0000 a5aa 8cbc 8d8d 3abc 83f1 d5bc
00000350: 8937 27bb cb2b 9039 8891 dfbc 0000 0000
00000360: 831c 53bd 381a a2bc 1f9c ff3c a091 36bc
00000370: 0000 0000 1eeb edbc f2ff f0bb c11e ef3b
00000380: 0000 0000 0000 0000 0000 0000 0000 0000
00000390: feb4 c0bc 3e04 86bb 0000 0000 54ff adbc
000003a0: 22ac e3bc a837 d9bb 492f 203c 2196 38bd
000003b0: 7987 a8bb 0000 0000 0000 0000 0f24 daba
000003c0: 0000 0000 6732 8abb 0000 0000 ca6a 23bb
000003d0: 0000 0000 e0e6 dd3b 47f3 5abb f327 8d3b
000003e0: ceb6 98bc f274 36bd af11 b9bb f957 343a
000003f0: 0000 0000 ea45 a43a 7492 793b 0000 0000
-0.017019182 0.0 -0.04732805 -0.008535613 -0.016855244 -0.010019207 -0.025064573 -0.004126022
0.023051547 -0.010162366 -0.03341217 0.0 -0.02129698 -0.007760936 -0.033029497 0.004699482
0.0 -0.018772632 -0.0043740226 -0.0020066595 -0.01570161 -0.021454599 -0.032453127 0.0
-0.017326593 0.0 -0.0024142733 -0.019354511 -0.014825068 -0.01146595 0.0052280785 -0.009411357
0.015208593 -0.0034092783 -0.014885783 -0.00032856074 -0.013165857 -0.020762153 -0.03849313 -0.027967446
0.0 -0.022787975 -0.058527604 -0.0030511464 -0.03784779 0.0 -0.012280445 -0.023733133
-0.039762817 0.025767365 -0.01366946 -0.003001366 0.032102305 -0.02997993 -0.0036990256 -0.017557835
-0.012133731 -0.018765694 0.0 -0.026670016 -0.019465959 -0.026165988 -0.009230406 0.02764931
0.0070790546 -0.0051813745 0.0051672626 0.0 0.0 0.0 0.0 -0.0056927763
0.0 -0.023338798 -0.024856986 0.0 0.012147525 -0.023159793 -0.03326538 -0.010645255
0.0 -0.015144604 0.0 -0.012529493 -0.014318831 -0.0033235843 -0.009892114 -0.013623259
-0.036599908 -0.008342389 0.0025105556 -0.015109071 0.0 -0.0019001977 -0.024522237 -0.00633393
-0.0323035 0.0 0.018137796 -0.021117428 -0.03125014 0.0 0.0046518017 -0.0058540767
-0.017833587 0.0 0.0 -0.03526634 -0.017152147 0.0 0.0 0.0022966124
0.0 -0.0070150583 -0.009355252 -0.0024877577 0.0 -0.008739794 -0.023418197 -0.0266272
0.0017535429 0.027110409 0.0 0.0 0.0 -0.0058635594 0.0 0.0
0.0 0.0071711503 0.0 -0.0048225257 0.016089052 -0.051545464 0.013303023 -0.019988919
-0.00516615 -0.0031748295 0.0 -0.006192563 0.0 -0.012670215 0.0 0.00048618548
0.0 0.0 -0.023141854 0.0103295045 -0.019107537 0.0 -0.01442914 -0.01583989
-0.0016590946 -0.02359325 -0.022060188 -0.024445012 0.012591436 -0.011364927 0.0 -0.00058603485
-0.0053845486 -0.0013271588 -0.0030428264 0.0 -0.019510187 0.0 -0.020792414 -0.014514903
-0.023108052 0.0 -0.0284194 0.0 -0.0034830514 -0.004057867 -0.028196117 0.0
-0.030075176 -0.033986785 -0.011148759 0.0 0.0 0.0 0.0025126925 0.0
0.0 -0.013395306 -0.022071779 0.0 0.0 -0.015691921 -0.016621156 0.0
-0.016610987 -0.025773088 -0.016099174 -0.017641755 -0.015302224 -0.028439475 -0.018656813 -0.00669702
0.0 0.0 0.0 0.0 -0.047171433 0.024723247 0.009372991 -0.011417115
0.0 -0.017171213 -0.011386287 -0.026116138 -0.002551528 0.0002749845 -0.027291074 0.0
-0.051540863 -0.019787893 0.031202374 -0.011143118 0.0 -0.029042777 -0.00735473 0.0072973673
0.0 0.0 0.0 0.0 -0.023523804 -0.004089861 0.0 -0.021239914
-0.02779204 -0.006628949 0.009776899 -0.04506505 -0.0051431027 0.0 0.0 -0.0016642826
0.0 -0.004217434 0.0 -0.0024935477 0.0 0.006771907 -0.0033409165 0.004307741
-0.018641856 -0.04454512 -0.00564786 0.0006879564 0.0 0.0012533043 0.0038081678 0.0

feature_extractor.network.3.weight f4 [128, 256]
00000000: cdfc b6bb 7c94 ad3d 86f4 de3d 23df dfbd
00000010: 2cfa fbba 3d06 8ebc 7c7b cf3d fd28 58bd
00000020: 287f c8bd af9d df3d ace0 8abd 4a67 b83d
00000030: ab58 323d 80d5 b6bd d184 0bbe 3fb7 32bd
00000040: 76eb b9bd 4116 e9bd f80c 09bb 447a bf3c
00000050: 8916 f2bb 6fa4 f63d 7b9d 8d3d 802a d7ba
00000060: e827 953d ba75 d7bd 4628 013e 7c1a a33c
00000070: 40cd c4bc a14e 2b3d 2b67 69bb 08fe 95bd
00000080: 41f4 c33c 83c4 80bc 52dc b2bc d496 debd
00000090: 52b6 f2bc ab1c 323a ee68 523d 9a36 86bd
000000a0: 62b9 c3bd 37d9 e83d 0363 8bbd 8498 e73d
000000b0: a4c4 e7bd 96c7 c53d 184c 83bd 6cc0 49bd
000000c0: 1c81 db3d 06e8 08bb def4 2e3d 9e16 b0bd
000000d0: 7128 c0bd b2e8 ebbd 5b9d cfbd 23b8 3dbd
000000e0: 4fc8 6f3d 251d 34bc 58fb f93c 5ed9 933d
000000f0: 8d15 2f3d 6155 9c3d c155 b2bd 6f77 2e3d
00000100: a0b0 f3bc c668 883c 21f6 d53b 60a6 8ebd
00000110: 5ccd 16bd bcc6 a0bd dcb3 c8bd 1420 723d
00000120: 20bf 633c 0aac ccbd a355 f33d 2059 1fbc
00000130: eaf1 113d 30a8 863d 5007 5c3d c70e 41bc
00000140: 987e b33d beac 4a3d 7e16 a6bd 3564 ca3b
00000150: 1124 e73d b76b 2dbc c069 d2bd c8da 4f3d
00000160: 49dc b4bd c2f6 5bbd bc2a 0f3d 69d4 b83d
00000170: c0c7 06bd 8a58 c6bd f165 de3c 3575 1d3c
00000180: 87f3 ae3d 0c76 da3d a726 4abd 9f6d 11bc
00000190: bff2 923d 00a0 c73d b71b 41bd 1c0e 7f3d
000001a0: 0e8d d53d 0a40 f43d 84a5 a13d f63c 8e3d
000001b0: cf63 58bc 0cdf ce3d a01e edbd cd38 93bd
000001c0: 3011 afbc 6e3a eebd afb6 61bd 9be6 373d
000001d0: ea03 cbbd 8326 11bd 3527 43bc fa9c 0b3a
000001e0: a773 51bd 6851 913b b2e2 c6bd 4c89 3a3d
000001f0: 806a 953b 63c5 f13c 54a3 be3d b047 b2bd
00000200: 6ec7 a5bd 23bd f6bc 54a8 d03d e6e9 9c3d
00000210: 4bc7 0b3d 1bc0 4e3d dc54 bdbd 042d 063d
00000220: 29d3 fdbb 10c3 cbbc f0e0 6b3c 168e 903b
00000230: a075 80bd 1f53 d8bd 9ca1 f43d 1b89 b83d
00000240: 687c 113d 0a15 fb3d a460 1b3d 8e83 ddbd
00000250: f87e c6bd b8a8 fdbc 2fc8 f8bd 7223 863d
00000260: aa79 f43d f05f 63bc 8a69 943d f81e 423c
00000270: 6c40 f13c 1b2c b63d 24e0 5cbd e400 1d3d
00000280: 1184 49bd 04ec f23d d4b6 b43d 6eab eb3d
00000290: 4e8e 0bbe c0f8 2cbd 0d4a 983d 24b0 efbd
000002a0: b970 e4bd 409d 1a3c 7c69 de3c 4469 30bd
000002b0: 2de0 f43d 9a44 af3d 10e7 003d 24f5 62bd
000002c0: 969e 52bc 9ada 61bd 3b66 0a3e 68bb c9bc
000002d0: 0636 c53d a0d9 7ebd 1d76 e4bd 4cb7 ee3d
000002e0: 2af0 f4bd fb43 4cbd 8d3d aa3c 1861 db3d
000002f0: c852 00bd 2374 b33b 4155 b6bc 5067 0d3c
00000300: 729b 0abb 2aeb cbbd 11fe e0bd 503d c03d
00000310: 2287 9e3d 0cdd 033b a130 203b 9c03 99bc
00000320: 3c4e 8f3d 9c0b 38bd eaf0 aebd 681d 1dbd
00000330: 62ff ae3d 7b8a b33c f255 a83b d019 7f3d
00000340: 44c9 5a3d cfd9 e4bd a6d2 d83c 14e0 a9bd
00000350: 8398 14bd 5222 d93d 3e6e 9ebd dce9 d13d
00000360: 7b6a a13d 16d4 34bc 81cb c43d c387 f63b
00000370: cc8f 373d ec48 1e3d 61c8 a63d c806 283d
00000380: f6db a5bd c245 91bd e867 b6bd b819 cd3c
00000390: d046 603d 430a 0fbd 480d e33d 35df 313b
000003a0: 1279 c53d 6740 dd3a 6e9d 06be 6f01 b1bd
000003b0: 194f 563c 1451 a5bd 908d 5bbc 3fe5 cc3c
000003c0: 68cd cebd ac48 a43d 700b a0bd a085 7dbc
000003d0: 5c5c e0bd ed93 823d b605 7e3d 067f 03be
000003e0: 1789 11bb 1e45 e7bd 84c1 afbd 3a46 44bd
000003f0: 563b e2bd 2af4 0b3a 8a22 94bd 7260 bfbd
-0.0055843354 0.08475587 0.10886483 -0.10931232 -0.0019224337 -0.017336959 0.10130975 -0.052773464
-0.09789878 0.10918748 -0.06781134 0.09004076 0.04354159 -0.08927441 -0.13624884 -0.04363179
-0.09078114 -0.11381198 -0.002091227 0.02337373 -0.0073879403 0.12043082 0.06914803 -0.0016415864
0.07283002 -0.105205014 0.1261302 0.01991009 -0.024023652 0.041823033 -0.0035614471 -0.07323843
0.02392018 -0.015718704 -0.021833573 -0.10868612 -0.029627953 0.0006794433 0.0513696 -0.06553383
-0.09556843 0.113695554 -0.06805994 0.11308387 -0.11316803 0.096572086 -0.06410998 -0.049255773
0.10717985 -0.002089025 0.042713992 -0.08598064 -0.093827136 -0.115189925 -0.10137435 -0.046318185
0.05854064 -0.010993277 0.030515358 0.07219194 0.04274516 0.07633472 -0.087077625 0.04259437
-0.029747307 0.016651522 0.006529585 -0.06965327 -0.03681694 -0.078504056 -0.097999305 0.059112623
0.013900548 -0.09993751 0.11881568 -0.009725839 0.035631098 0.06575048 0.05371791 -0.011783308
0.0876438 0.049481146 -0.08109759 0.0061764964 0.11286176 -0.010584763 -0.102740765 0.050745755
-0.088310786 -0.053702123 0.034952864 0.09024889 -0.03290534 -0.09684856 0.027148219 0.009610464
0.08542543 0.10667047 -0.049353268 -0.008876233 0.071752064 0.097473145 -0.04714557 0.062269315
0.10427295 0.11926277 0.07892898 0.06945221 -0.01320739 0.101011366 -0.11578107 -0.07188568
-0.0213705 -0.11632238 -0.05510586 0.044897657 -0.09912856 -0.03543712 -0.011911203 0.00053258205
-0.051135685 0.004434753 -0.097112074 0.045541093 0.004559815 0.029513067 0.09308496 -0.087050796
-0.08094679 -0.030119484 0.10188356 0.076618 0.034125607 0.050476175 -0.09244701 0.032757774
-0.0077461195 -0.024873286 0.014396891 0.004411469 -0.06272435 -0.10562729 0.11944887 0.09010526
0.035519034 0.12259872 0.03793396 -0.10816108 -0.09692186 -0.03096424 -0.12147557 0.065497294
0.11937268 -0.013877854 0.072466925 0.011848204 0.029449664 0.08895131 -0.053924695 0.038330927
-0.049198214 0.11861423 0.08823934 0.11507307 -0.13628504 -0.042229414 0.07435999 -0.11703518
-0.11154313 0.009436905 0.027149908 -0.04306914 0.11956821 0.085580066 0.03147036 -0.055409566
-0.012855193 -0.055140115 0.1351556 -0.024625495 0.09629445 -0.062219262 -0.11155341 0.11656055
-0.1195987 -0.04986952 0.020781303 0.107118785 -0.031328946 0.005476491 -0.02225745 0.008630589
-0.0021149782 -0.09956963 -0.10985959 0.093866944 0.07740618 0.0020120768 0.0024443048 -0.018678479
0.06997344 -0.044932947 -0.085420445 -0.038358122 0.08544804 0.021916619 0.0051371986 0.062280476
0.053414598 -0.11174356 0.026467633 -0.08294693 -0.03627826 0.10602249 -0.07735871 0.10249683
0.07881638 -0.011036893 0.09609128 0.0075235083 0.04481487 0.038643762 0.08143688 0.041022092
-0.08098595 -0.07093383 -0.08906537 0.025036678 0.054755032 -0.034921896 0.110865176 0.0027141098
0.09642233 0.0016880155 -0.13145992 -0.086428516 0.013080382 -0.08072105 -0.01340045 0.025011657
-0.10097772 0.080216736 -0.078146815 -0.015473753 -0.10955116 0.06375871 0.062017165 -0.12841424
-0.0022206956 -0.1129248 -0.08581832 -0.047918536 -0.11046474 0.00053388125 -0.0723315 -0.09344567

feature_extractor.network.3.bias f4 [128]
00000000: 219d 47bc 5e2a f6bb 7176 b2bc bca4 d0bc
00000010: 4cd7 18bc cb1b 0cbc d62b 5ebd 3484 5dbc
00000020: cd26 cebb ce69 dbbc df3d 69bc 8c13 09bc
00000030: ace4 063d 9d7c 0a3d ac3d fc3c 3969 e73c
00000040: aaec d2bc 5a9a 633d 86f9 1dbc 78c7 1ebd
00000050: 2baa 8ebc 2973 f7bc 8432 8cbc 7771 663a
00000060: c6fd b1bc 285a d6bc fe47 d5bb 9805 e9bc
00000070: 552c 403b 87fd 793d 360f edbc 2252 c2bb
00000080: 4d9b 1c3c 3a80 373b 14d3 42bd bb43 17bc
00000090: 891d 163d db6c edbc cfe5 813c d1c4 66bc
000000a0: f0b0 1e3d 60c0 34bc a12b dcbc 00f5 303b
000000b0: 6649 e3bc 27e8 3ebc 123e bbbc 6981 f23c
000000c0: 6cb4 b8bc a5cb b4bb 6dc6 a9bc 5e76 83bc
000000d0: 0cbf 4ebb cde1 bfbc 3c23 a1bc 9fa1 14bd
000000e0: 3ad9 efbc 723d 1f3c dbb8 a8bc 8f82 c0bc
000000f0: 2705 7bbc 9983 94bc 5222 91bc b20a bdbc
00000100: 604c ffbc b4f3 de3b 2a83 64bb ed3a f9bc
00000110: 6ff9 e7bb c34c 94bc a42c a5bc 5646 8bbb
00000120: 7b91 5abc e5d9 dcbc 3919 cfbc 4f2c fb3c
00000130: 4742 9eba e790 84bb 5bda d7bc f03c 6fbc
00000140: 564b 163d 0014 0ebd f0fb 00bd 9ab7 db3c
00000150: 4bee ffbc d57f 81bb d994 6cba 6989 64bc
00000160: 6244 0dbd 87bd e8bb 51cc ebbc ddad 96bc
00000170: 20ce 4fbc ede1 aebb 3dc6 cbbc 7c58 b4bc
00000180: 2401 a1bc e982 58bb 1b9c edbb 8020 a8bc
00000190: 8599 0c3d 51d6 a3bc 22f3 f8bc a3bb 6fbc
000001a0: 5fd4 82bc 0745 c2bc 8fa8 d63c 5bf7 a3bc
000001b0: 2eaa 173c f527 a1bc a9b2 cd3b eb38 05ba
000001c0: 9657 f1bb f362 c0bc 4d0f 023d 30f2 c4bc
000001d0: d98b e8bb 7a64 6bbb 3b6a 0fbc 6d62 043c
000001e0: e885 5ebb 48c3 8fbc 18eb efbc 914d 13bc
000001f0: d7f1 caba d8cf d4bc 48d4 4a3d b16a 943c
-0.012183459 -0.007512375 -0.021784993 -0.025469176 -0.0093286745 -0.008551548 -0.054241024 -0.013520289
-0.0062912465 -0.02678385 -0.014235943 -0.008366477 0.032932922 0.033810247 0.030791126 0.028248416
-0.025747616 0.055567123 -0.009642011 -0.038764447 -0.017415127 -0.03020628 -0.017113931 0.0008790711
-0.021727454 -0.026166037 -0.0065088263 -0.02844505 0.00293233 0.0610328 -0.028937917 -0.005930201
0.009558511 0.0028000013 -0.04756458 -0.009232457 0.03664926 -0.02898257 0.015856652 -0.014085011
0.03874296 -0.011032194 -0.026876273 0.00270015 -0.02774496 -0.011652029 -0.022856746 0.029602723
-0.02254697 -0.0055174404 -0.0207245 -0.016047653 -0.0031546978 -0.0234231 -0.019670121 -0.036286946
-0.029278386 0.00971924 -0.020595958 -0.023499755 -0.015321053 -0.018129157 -0.01771656 -0.023076389
-0.031164348 0.006803954 -0.003486822 -0.030423606 -0.0070792953 -0.01810301 -0.020162888 -0.004250328
-0.013340349 -0.026959369 -0.025280582 0.030660776 -0.0012074196 -0.004045594 -0.026349237 -0.014601931
0.03669294 -0.034687042 -0.031490266 0.026820946 -0.031241557 -0.0039520063 -0.00090248656 -0.013948777
-0.034489043 -0.0071026715 -0.02878395 -0.018393451 -0.012683421 -0.005336991 -0.0248748 -0.022014849
-0.019653864 -0.0033037013 -0.0072512752 -0.02052331 0.034326095 -0.019999655 -0.030389372 -0.014632138
-0.015970407 -0.023714555 0.026203422 -0.02001541 0.009256883 -0.019672373 0.0062774015 -0.0005082029
-0.0073651774 -0.023484683 0.031752873 -0.024041265 -0.0070967493 -0.0035918043 -0.008753355 0.008080107
-0.0033954326 -0.017549172 -0.029286906 -0.008990661 -0.0015483451 -0.025978014 0.049518853 0.01811728

feature_extractor.network.6.weight f4 [64, 128]
00000000: df4c cebd a5ee 9d3d f9c3 12bd f2e6 afbc
00000010: d936 dc3c 068a 76bd d92d 23be 96e5 ab3d
00000020: ba4e a03d 4136 f93d c701 063e 60ff 85bb
00000030: 618a da3d 2254 c53d 1620 f5bd df00 a8bd
00000040: 55c9 13be 6837 913d 97a0 d23d 307d 3fbd
00000050: e609 963d 2c9b d8bc 0cc6 db3c e1d5 8abd
00000060: c22d 0abd 8c7d 73bc 1390 2abc e523 5e3c
00000070: 2313 e13c 4a06 0abe 7262 103e 1970 f1bd
00000080: 6ba8 00be f4e2 afbb aae7 533c edef bc3d
00000090: bbee 18bd e53a 1ebc 757e 55bd a736 0a3e
000000a0: 910a 793d 99c3 003e 572f 2dbe ab10 533d
000000b0: ed4d a5bd eb38 f1bd a26d f0bd f8b7 013e
000000c0: 5e8c 59bd 0177 07be 1a3b 413d afe2 1cbe
000000d0: 1ee9 1b3e b158 c0bd f77b c3bd 3fab 313e
000000e0: 47df 0dbe 724d a6bd 438e be3d aad7 fdbc
000000f0: 17dc adbd 1afe 923c 8761 2abd 2b77 663d
00000100: 355f e43d a90a cc3c ca99 203e 882a 223e
00000110: 66c7 d43d 7870 5fbd f25a 34be d9e6 063e
00000120: 2823 b5bd f138 643d 6afb 1ebe c76e ccbd
00000130: 386a 75bd fee6 19be aa0d b4bd 1b12 dc3d
00000140: fc87 0dbe f0ff c93d b4cc b1bd 5efd 293d
00000150: 3c46 8b3d c1d6 853d 4278 aabd 12ad 16be
00000160: 6772 23be 8340 3ebe f97a 033e e363 743d
00000170: f30f 343d 7cbb c9bc 46ae 31be 6f3a 87bd
00000180: a090 74bc c729 5d3d d2d7 203e e453 97b9
00000190: c5a5 4dbe 4770 153c 4922 e5bd ca42 223e
000001a0: 96e3 87bd ed98 b2bc 3bad e6bd fecd 32be
000001b0: 60c1 c9bd b0ce 97bd 608d acbd 071d 383d
000001c0: 6203 6e3d 245c d63d bb61 d1bc cd59 263e
000001d0: 1df6 be3d a515 153d de1b 30be 6e48 f7bd
000001e0: 4f94 ea3d b255 843d f763 39be ef39 993c
000001f0: 4687 6f3d 3f0e f03d 8e1d f13c 089b c9bd
00000200: e720 febd c01c 923c 210b 44bd 8071 663d
00000210: 8805 f9bd 6018 ccbc 2922 7cbc b61a 2bbe
00000220: b4e6 2a3e 116b 933c fc6a 2b3e 6b12 15bc
00000230: abc5 3f3d c922 7dbc d037 013d 4006 c5bd
00000240: b1e7 9fbd 5f18 bc3d 0ddd 81bd 82ea ef3a
00000250: 96e6 303d b35f a5bd 40b3 7d3d caa4 21be
00000260: a1ea babd 018f b9bd 1ee1 173d 06d2 dabd
00000270: 3512 bc3d 8d20 8a3d d0c6 223e 9bb0 eabd
00000280: f6e9 c63d 5462 abbd 90f4 223e c53e 243e
00000290: ba57 16be ffd9 953b cfe6 f7bd 2ade 503d
000002a0: 519e 083c 77c9 a53c d673 cbbd 2c36 cb3d
000002b0: 8bb6 183d 38de 1e3e e56e 173e f015 ba3d
000002c0: 112e 793c 86a8 afbb 89f7 d03d ba67 e53d
000002d0: 8564 d6bd c615 ef3c ebc8 a7bd 0edb febc
000002e0: d8f9 9f3d fe26 f23d f30a dfbc ac6b 873d
000002f0: 89e8 01bd 94ee 2ebd 3be1 cfbd ce7b f1bd
00000300: 7c07 163e 9aea 9fbd 5dfe fb3d 4f20 bc3d
00000310: 2761 c03d f991 10be edb6 6cbd 0b8b 44bd
00000320: a73b 2c3d 328a 593c 0219 a4bd 44dd f4bd
00000330: 557f 173e fac8 853d 37e9 153e 15b9 0ebe
00000340: a82c e83d fa89 abbc fd40 213d 053f 6b3d
00000350: eb25 dd3d 7e61 3a3e a522 8fbd 8a60 453c
00000360: 45ac 123e adf8 b5bd c3da 2b3e ab15 edbc
00000370: 1c14 15bc 002a 813d 0e53 ed3d d9e5 9a3d
00000380: 6bbf b03d f17c 89bd f4f7 f8bc 1a5f f43d
00000390: 6dde b73d 60b4 edbd 47e9 75bd c74a 403e
000003a0: 5c1e 673d 99f3 09bb d078 aabd 36a9 20be
000003b0: 751d 9abd 6ed7 123e e092 14be ba92 d039
000003c0: 220c f1bc c44c a8bc eca3 193d 5711 d7bd
000003d0: 834d 073d b15a 0bbe 1e1c b0bd e19f 2cbe
000003e0: b2e8 d23d b22a a73d 8b7a 9e3c 3756 7abd
000003f0: 2528 fb3c 83c6 9abd 41d2 91bd cb23 7fbc
-0.10073256 0.077115335 -0.035831425 -0.021472428 0.026881622 -0.060190223 -0.15935458 0.083933994
0.07827516 0.12168551 0.13086616 -0.004089281 0.10670925 0.09635188 -0.119690105 -0.08203291
-0.14432271 0.07090646 0.10284536 -0.046750247 0.07326107 -0.02644118 0.026827835 -0.067790754
-0.033735044 -0.014861476 -0.0104103265 0.013558363 0.027474945 -0.13478962 0.14100054 -0.11788959
-0.12564246 -0.005367631 0.012933651 0.0922545 -0.037337046 -0.009657596 -0.052122552 0.1349741
0.060801093 0.12574615 -0.1691259 0.051529568 -0.08071504 -0.11778434 -0.11739661 0.12667835
-0.05311238 -0.1322899 0.047175504 -0.15320848 0.15225646 -0.093919165 -0.09545129 0.17350481
-0.13854705 -0.0812024 0.09304478 -0.030986626 -0.084892444 0.01794343 -0.041596916 0.05626599
0.11150972 0.024907427 0.15683666 0.15836537 0.10389595 -0.054550618 -0.17612818 0.13173999
-0.08844596 0.055718366 -0.15525594 -0.099820666 -0.05991575 -0.15029523 -0.08791669 0.10745641
-0.13821405 0.09863269 -0.08681622 0.041501395 0.068005055 0.06535102 -0.083237186 -0.14714459
-0.1596161 -0.18579297 0.12839879 0.059665572 0.043960523 -0.024625532 -0.17351636 -0.06602942
-0.014927059 0.05399492 0.15707329 -0.00028863468 -0.20082767 0.009121007 -0.1118818 0.1584579
-0.066352054 -0.021801436 -0.1126351 -0.17461392 -0.098513365 -0.074124694 -0.08425403 0.044949558
0.058108695 0.10466793 -0.025559297 0.16245194 0.09324286 0.036397595 -0.1719813 -0.12074362
0.11454069 0.064616576 -0.1810454 0.018704383 0.058478616 0.11721467 0.029433038 -0.09844023
-0.124086194 0.017835975 -0.047862176 0.056260586 -0.12159258 -0.024913967 -0.015389004 -0.16709408
0.16689569 0.01799539 0.1674003 -0.0090986295 0.04681937 -0.015450188 0.031547368 -0.09620333
-0.078078635 0.09184336 -0.0634099 0.0018304142 0.043188654 -0.08074894 0.061938524 -0.15785518
-0.09126783 -0.09060479 0.037079923 -0.1068459 0.0918316 0.0674449 0.15896153 -0.11459466
0.09712593 -0.08368364 0.15913606 0.1603957 -0.14681903 0.0045731063 -0.1210457 0.050993122
0.008338527 0.020237667 -0.09934203 0.09922442 0.03728346 0.15514457 0.14788397 0.090862155
0.015208737 -0.0053606657 0.102034636 0.11201425 -0.10468391 0.029185187 -0.08192619 -0.031110313
0.07811326 0.118238434 -0.0272269 0.06612334 -0.031715903 -0.042707995 -0.10150381 -0.11791192
0.14651293 -0.078084186 0.12304375 0.0918585 0.0939353 -0.14118184 -0.05779164 -0.047984164
0.042049076 0.013277577 -0.08012582 -0.119562656 0.14794667 0.06532474 0.14639746 -0.1393779
0.113366425 -0.020939816 0.03936862 0.057433147 0.10798248 0.18201253 -0.0698903 0.0120469425
0.14323528 -0.08885322 0.1678267 -0.028940996 -0.009099033 0.06306839 0.11588107 0.07563371
0.0863026 -0.06713284 -0.03039167 0.11932202 0.08977971 -0.116066694 -0.060036924 0.18778525
0.056425437 -0.0021049737 -0.083238244 -0.15689549 -0.0752515 0.14339992 -0.14509153 0.0003978217
-0.02942473 -0.020544417 0.037509844 -0.10501354 0.033032905 -0.13608815 -0.08599113 -0.16857864
0.10298289 0.0816244 0.019345542 -0.061117377 0.03065879 -0.07557394 -0.07120181 -0.015572499

feature_extractor.network.6.bias f4 [64]
00000000: 3c7d 7ebd 6168 9c3c 530d aabd 20bb a23d
00000010: 05b1 a73d 79f6 5bbc ec81 09bd 27a1 ee3d
00000020: da93 b6bc d72a 223d ddd7 4b39 9ff0 bfbc
00000030: faf7 1fbb 0e19 9dbd c20a 89bd 1666 f2bc
00000040: 7afb da3c 89e2 cd3d 4b84 21bd ea5e fabc
00000050: d034 4cbd d8da 15bd d423 6fbd 7621 24bd
00000060: dea8 6bbd 838a 0ebd 5923 d7bc 8454 a6bd
00000070: 45e8 41bd dd3d 48bd ce90 7ebc 669e 54bd
00000080: e0c8 0bbd 4080 283d 4f2a 7fbd 0c2e 9fbc
00000090: 939c 7abd 406f 65bd 8965 2ebc 6198 39bd
000000a0: 4bd8 4ebd 706a 8fbd 7e3c 083a 7190 9dbc
000000b0: b720 35bd b89b 19bd 0a59 92bd 4f81 00bd
000000c0: ecd4 00bc cf2f 913d a7b3 0dbd 796d 02bc
000000d0: a8c9 67bc 9f78 33bd 4fe1 7cbd 21e7 1cbc
000000e0: 4769 4abd b66b 46bd 7d75 80bd 0b7b 33bd
000000f0: c3cf 2f3d 4543 28bd 6671 39bd 996c 32bd
-0.06213115 0.01909274 -0.08303323 0.079458475 0.08188061 -0.013425463 -0.03357117 0.11651831
-0.022287298 0.039591637 0.00019440004 -0.023430167 -0.002440928 -0.076707944 -0.06691505 -0.029589694
0.026731241 0.10052974 -0.039432805 -0.030562837 -0.049855053 -0.03658566 -0.058383778 -0.040070973
-0.05753409 -0.034800064 -0.026261972 -0.08121589 -0.04734065 -0.048887122 -0.015537454 -0.051908873
-0.034127116 0.041137934 -0.062296208 -0.019431137 -0.061184477 -0.0560143 -0.010644325 -0.045311335
-0.05049924 -0.07002723 0.00051970023 -0.019233914 -0.044220652 -0.03750202 -0.07145889 -0.03137332
-0.0078632645 0.07089197 -0.034595158 -0.007960671 -0.0141472 -0.043816205 -0.06173831 -0.00957659
-0.049416807 -0.048442565 -0.06272409 -0.043818515 0.042922746 -0.04107978 -0.04527416 -0.043560598

feature_extractor.network.9.weight f4 [6, 64]
00000000: 2c35 a7bd 26a0 04be a0ef f13d 4c13 803e
00000010: 50a2 703e 24b8 d83d 9dfd 13be 3c09 6f3e
00000020: 452b 00be e036 253c e894 963d 3ab3 943e
00000030: b4c7 0b3e 80f4 14bb 107f 0e3d 9ec1 8dbe
00000040: 706f 473d 8053 fa3c 106b 4abe acd3 6abd
00000050: 0699 ddbd c887 94be 1486 b83d 2638 a6bd
00000060: 6024 113c 62b6 4ebe 1572 93be 34d7 8b3e
00000070: b442 47be 19af 08be de8a 6dbe 4a5e 13be
00000080: d069 9b3c a02a 593e 3e4f aebd 5a94 1f3e
00000090: 4695 103e 5836 823e 0450 413e 12af 893e
000000a0: 52e9 eebd 1a3a debd cc3c 94bd a318 47be
000000b0: 6017 a3bc 43f6 8fbe 5afb 1abe d650 f3bd
000000c0: fe62 893e e46d 50bd 66b2 493e 44d1 8d3d
000000d0: ecb7 793e f077 253d 5476 c33d 345b 72bd
000000e0: 3cc5 5f3e 30c8 0d3d 8231 e7bd f8a9 513e
000000f0: 6490 03be c8d8 053d 6cc6 af3d 008f 4fbb
00000100: 8898 6b3e 5b40 83be 6c90 bfbd 80e6 213b
00000110: bccc 59bd 50f9 99bc 8632 d2bd 02fc 883e
00000120: 601f 49bc d2ab 393e dc60 1e3e 9835 3b3e
00000130: c41f c9bd ccf9 483e 3ee1 143e 1044 313e
00000140: 004c 95be d617 71be 065a 433e 8045 2ebb
00000150: f289 d5bd 7288 78be 3c6b e73d 582b 053e
00000160: 8602 493e c8f2 5c3e c604 8dbe d0a8 aa3c
00000170: 123e 8b3e 6c45 823e f294 493e 22b5 2abe
00000180: 9c4b 7f3e 98d1 043e a814 453e 80e3 b83c
00000190: 5ec4 f9bd 881b 963d 0ccf 6ebe f8e7 55bd
000001a0: d6b5 283e 5015 393d 41bd 8dbe 6035 5d3c
000001b0: b23b 833e 3bb7 8ebe d831 6c3d c06e 14be
000001c0: eafc 253e 406b ea3d 002a e2bb 7009 0a3e
000001d0: 5022 5e3e 700a 953c 609c 0fbe 3853 233d
000001e0: 144b fb3d a02e 42bc 450d 7cbe 1842 123e
000001f0: 28b1 7b3d 56f3 8ebe 94ac 1d3e 6026 cb3d
00000200: c866 503e 0edc 83be a410 943e a825 d83d
00000210: c405 04be c016 d23b c045 543c 9608 44be
00000220: 3511 82be 8b9f 23be b012 1dbd f86c 8c3d
00000230: aec6 b3bd 3ee7 20be a5d9 88be bf0c 84be
00000240: 486b 693e c0e7 98bb f49a ad3d 9ee1 24be
00000250: 13fe 5ebe b043 723e 4dfb 7cbe 5559 1fbe
00000260: 7045 063e 8ddb 27be b897 433e 30ee 573e
00000270: 82c2 53be b40d 133e 804b a6bb 0a43 0a3e
00000280: 067c 4abe f284 c6bd 80bf 25bc 2cef 603e
00000290: 5b65 1abe d293 18be 2054 acbc 9840 1f3d
000002a0: b386 4fbe 206a 92bc e427 5d3e f846 3dbe
000002b0: 54f1 d53d 60d4 ccbd b88c 82be da23 6bbe
000002c0: d8a7 a83d 5424 48be 34da 943e ac5a 43be
000002d0: c600 5fbe 4e37 3dbe 7c96 803e 48ae 6a3e
000002e0: aaed 5abe feb9 893e 248e 95bd fba8 52be
000002f0: 1130 5abe 2616 833e 7cb8 f13d 782b 4f3d
00000300: c482 a8bd 4cfa 6d3e 0c7e fc3d 4a47 833e
00000310: 6006 7b3e 0020 623c c044 5abc 00e0 ca3c
00000320: 9c80 8d3e 40cb d5bc 8e2b 64be 0088 f8bb
00000330: decf 3c3e d01f 2b3e 10ee 913c edc5 76be
00000340: 0ab7 7abe 2933 87be f071 c1bd da60 453e
00000350: 5486 07be 20a6 603d 46be 2fbe 0e36 85be
00000360: adc1 3abe 317e 25be d03c 643e edd3 60be
00000370: 808e 953b 301c f6bc 84c4 8cbd 18db b73d
00000380: d34d 8abe 780f 3ebe c85d cebd 68d9 3c3e
00000390: a043 ce3c 10c8 35be 28b6 a3bd 32fd 493e
000003a0: dfab 86be 4e59 083e e26d dabd 3c8a 613e
000003b0: d95f 04be 202d cc3d b615 4cbe 0488 84be
000003c0: 349a 5dbe 786a 593d b071 6e3d 4097 2cbe
000003d0: fd66 57be dc8e 853d 187d b43d c001 b83b
000003e0: c42b b5bd 80e9 c73d b042 273e c005 7f3e
000003f0: 3e53 163e 6c52 903d d8ac 7b3e 3c43 a53d
-0.081644386 -0.12951717 0.11813283 0.25014722 0.23499417 0.10581997 -0.14452215 0.23343366
-0.12516506 0.010083884 0.0735262 0.2904299 0.136504 -0.0022728741 0.034789145 -0.2768678
0.04869026 0.030557394 -0.19767404 -0.057330772 -0.108202025 -0.29009843 0.090099484 -0.08116178
0.00885877 -0.20186761 -0.28797975 0.27312624 -0.19459039 -0.13348044 -0.23197505 -0.14391437
0.018971354 0.21207666 -0.08511208 0.15583935 0.14119443 0.25432086 0.1887818 0.2689138
-0.11665596 -0.10850926 -0.072381586 -0.19442992 -0.019908607 -0.2811757 -0.15134946 -0.118806526
0.26833338 -0.05088605 0.1969696 0.0692468 0.24386567 0.040397584 0.09544054 -0.05916901
0.21852583 0.03461474 -0.1128874 0.20474994 -0.1284805 0.03267744 0.08582768 -0.0031670928
0.23007405 -0.25635037 -0.09353718 0.002470404 -0.053173766 -0.01879564 -0.10263543 0.26754767
-0.012275547 0.1813195 0.15466636 0.18282163 -0.09820512 0.1962654 0.14539048 0.1731112
-0.29159546 -0.23544249 0.1907731 -0.0026591718 -0.104267016 -0.242708 0.1129975 0.13004816
0.19629869 0.21576989 -0.27542704 0.02083245 0.27195793 0.2544359 0.19685724 -0.16670659
0.24931186 0.12970579 0.19246161 0.022569418 -0.12195657 0.0732947 -0.2332117 -0.052223176
0.16475615 0.04518634 -0.27683452 0.013501495 0.2563148 -0.2787417 0.057664722 -0.14495373
0.1620976 0.114462376 -0.0069019794 0.13480163 0.21692777 0.018193454 -0.14024496 0.039874285
0.122701794 -0.011851937 -0.24614437 0.14283025 0.061448246 -0.27920026 0.15397865 0.09919429
0.20351708 -0.25753826 0.28918946 0.10554057 -0.12892824 0.0064114034 0.012956083 -0.191439
-0.25403753 -0.1597883 -0.0383479 0.06856722 -0.087781295 -0.15713212 -0.2672855 -0.25790974
0.22794831 -0.0046662986 0.084768206 -0.16101691 -0.21776609 0.23658633 -0.24705239 -0.15561421
0.13112426 -0.16392346 0.19100845 0.21086955 -0.20679668 0.14360696 -0.0050749183 0.13502136
-0.19773874 -0.09693326 -0.010116458 0.21966237 -0.15077727 -0.14900139 -0.021036208 0.03887996
-0.20266227 -0.01787287 0.21597248 -0.18484104 0.1044642 -0.10001445 -0.25497985 -0.22962895
0.08235139 -0.19545108 0.29072726 -0.19077557 -0.21777639 -0.18478128 0.2511481 0.22918046
-0.21379724 0.26899713 -0.07302502 -0.20572273 -0.21307398 0.25602835 0.11802766 0.050578564
-0.082280666 0.23240012 0.12328729 0.25640327 0.2451415 0.013801575 -0.013322055 0.024765015
0.27637184 -0.026097894 -0.2228224 -0.007584572 0.1843867 0.16711354 0.017813712 -0.2409894
-0.24483886 -0.2640622 -0.0944556 0.19275227 -0.13234836 0.05484593 -0.17162427 -0.26017803
-0.18237944 -0.1616142 0.22288823 -0.21955843 0.0045641065 -0.030042738 -0.0687342 0.08977336
-0.270125 -0.18560588 -0.10076481 0.18442309 0.02517873 -0.17752099 -0.07993728 0.19725493
-0.26303002 0.13315317 -0.1066549 0.22025388 -0.12927188 0.099695444 -0.19930157 -0.25885022
-0.21640855 0.053080052 0.05821389 -0.16854572 -0.2103538 0.06521389 0.08812922 0.005615443
-0.08846238 0.097613335 0.16334033 0.24904537 0.14680192 0.07046971 0.24577653 0.080694646

feature_extractor.network.9.bias f4 [6]
00000000: 0000 0000 0000 0000 0000 0000 0000 0000
00000010: 0000 0000 0000 0000
0.0 0.0 0.0 0.0 0.0 0.0

mean_head.weight f4 [6, 64]
00000000: 5556 1bbd d1fb 5bbd da5e 813e cde5 38ba
00000010: 3a74 583c 2011 273e 0d9a 7c3e 8725 9f3a
00000020: 62dc dc3d bd3b c93d d938 1e3e 7e66 de3d
00000030: 8dd9 8abe c17c 8b3e 149a 71be b389 093e
00000040: 4d49 44bd e6f3 833d eab6 c53d d8a7 1e3e
00000050: 9a70 27be 4dd5 dc3d 998b debd 7c82 f53d
00000060: 95a5 fcbd d946 583d d415 b63d a1dc 3d3e
00000070: 88d1 16be 2ab1 b5bd 967a 28be 0f58 da3d
00000080: 2916 febc 5a15 89bd 8a34 98bd 97d6 093d
00000090: 4f31 21bd 1915 abbd 66ae 363b c6f9 31bd
000000a0: 1479 83be 3b1c e43d c65b 0dbd 0591 a3bb
000000b0: f58b fe3d f52a d83d 0e89 ebbd 2a24 be3d
000000c0: 7ab9 5d3e 9789 78bc f4ed 163e 038a bcbd
000000d0: f0fd 023e 5105 3d3e 34df 09be e2ad 323d
000000e0: 22d0 81bd 9bf8 cabd 8fbf 1ebe 8f24 003d
000000f0: 64ac 01be c10c a2bd 8983 623e c9fc 5f3e
00000100: de80 473e b8db c53d 7c64 57be e1a7 a5bb
00000110: 057a 353d 0458 eebc 7a0a 003e 851b 013c
00000120: c9f9 63bd cd8a a33d 7039 b5bd 005d e43c
00000130: dd77 61be 7f48 19be e2b4 92bd ae2d 703e
00000140: c144 b93d 5570 d2bc 3c6d 2a3e 732b 9b3d
00000150: d999 203e cf10 613e fae1 183e 64ad 77be
00000160: fd02 693e 9dbc 913d 4f28 41be e8ed 413e
00000170: 77fb 923e 9693 7cbe 57b6 5bbd 37a8 3abe
00000180: 02c0 003e bdcc 003e e7b3 e7bb bb86 123e
00000190: 8e13 4fbe 99f7 86be ed1b 39be 6228 203e
000001a0: b441 96bd 6601 b3bd 427e 27be 8c6f a33d
000001b0: 0d60 163e 6d89 6e3e 200e 4ebe b0e7 57be
000001c0: de41 173e f55a b6bd 8739 333b 0457 0d3d
000001d0: 4050 713e 982c c8bd 4ee3 743e 132d 2b3d
000001e0: 6bc8 42be 9970 5c3e 248c f63d 1b14 c63d
000001f0: b066 ffbb 09af dfbd db17 6a3e 5d10 1cbe
00000200: 5376 20be 0660 ee3d 5ae0 97bd 423d c1bd
00000210: 6318 9d3d 7b6d 2bbd b7f2 193e 1385 12bd
00000220: e524 b43d 556a e03d afcb 4bbe 0e09 57bd
00000230: 23ed b13d 0e7b 31bd e778 1e3e 92c3 053d
00000240: bcf4 00be a692 f4bb 5cd3 97bd 03a3 74be
00000250: 6591 64bd 00d7 4bbe 34f0 703e 76e5 033e
00000260: 4fdc a53d 9297 08bd f0c7 99bc 91ea 38be
00000270: 1825 0e3d f44e 2ebe fe74 02be 2dec 5a3e
00000280: ae15 f33d 357a 603c 728b ac3d d18b 99bd
00000290: 0db3 f83b de91 bf3c f2c9 92be c25f babd
000002a0: 2be2 4e3e 518e 3f3d 500e 45be b455 39be
000002b0: 520d 2dbe d492 8c3e 37a5 adbd 02ef 533e
000002c0: ad3a 5f3e 4c16 94bd b301 53be ed4d 85bd
000002d0: 103f f9bd 38c9 34be 9b21 a0bd 1691 343e
000002e0: 8cc1 623e 62d1 34be 5d0e 5eb9 4c85 4dbe
000002f0: abf8 58bd bcc8 15be 1c1a 003d e5f5 1bbe
00000300: b4f0 423d 8516 ff3d 341a b0bd ef94 ff3c
00000310: 491e 8ebc 88c7 d73d 567f 6fbe e502 8dbc
00000320: 8a39 043e bdac debd 2f28 7f3e 54c4 87bd
00000330: efad 283d 1c5e 36be d9fc 113d 5b75 86be
00000340: 5193 103d 6192 50bc 5934 873e f640 9abd
00000350: 99f3 963e 4da5 61be ce95 603d 9743 69be
00000360: ab73 2bbe 4116 15be 1406 623c 7c52 7fbe
00000370: 3a7a c0bd bb80 7cbe 3bd0 aabd fd08 80be
00000380: ba29 933e 3853 903c ce99 1bbe a157 40bd
00000390: 9c09 5e3e 71a5 2cbe 5b69 50be 2a6b 9c3d
000003a0: 3983 1cbc 7bcb 46be dd58 323e 156c edbc
000003b0: 9f2b ab3d d147 813e d256 143d 6a86 b9bd
000003c0: 2e60 2bbe 0eeb 28bd 229f 3cbe 39bd 36bd
000003d0: f87c a13d cc2a b8bd 1808 793e 57e5 923d
000003e0: 1173 36be 0ed3 543e 113e 86bc 54f6 32be
000003f0: 28ae 6d3b 81f0 fbbd 9908 803e 60c6 18be
-0.03792413 -0.053706948 0.25267678 -0.0007053286 0.013211304 0.16315126 0.2466814 0.0012141921
0.10784222 0.09825847 0.15451373 0.108593926 -0.27119103 0.27243617 -0.23593932 0.13431434
-0.047921468 0.06443004 0.09654029 0.15493715 -0.16351548 0.107828714 -0.1086647 0.119877785
-0.1233627 0.05280194 0.08890882 0.18541194 -0.14728367 -0.08871682 -0.16453013 0.10661327
-0.031016426 -0.066935256 -0.07431896 0.033651914 -0.039353665 -0.083536334 0.0027874946 -0.043451093
-0.25678313 0.11138197 -0.03451135 -0.004991653 0.124290384 0.105550684 -0.115007505 0.092842415
0.21652785 -0.015169523 0.1473921 -0.09206011 0.12792182 0.1845906 -0.13464051 0.04362286
-0.06338526 -0.09910699 -0.15502761 0.031284865 -0.12663418 -0.07912589 0.22120489 0.21873774
0.19482753 0.09661049 -0.21034425 -0.005055413 0.04430582 -0.029094703 0.12503996 0.007880096
-0.055658136 0.079854585 -0.08848846 0.027876377 -0.2201838 -0.14969061 -0.07163407 0.23454925
0.09046317 -0.02568833 0.16643232 0.07576647 0.15683688 0.21979068 0.14929953 -0.24187237
0.22755046 0.07116053 -0.18863033 0.1893841 0.28707477 -0.24665675 -0.05364069 -0.18228231
0.12573245 0.12578101 -0.0070710066 0.14309208 -0.20222303 -0.26360777 -0.18077059 0.15640405
-0.073367506 -0.08740501 -0.16356757 0.0798026 0.14685078 0.23294611 -0.20122576 -0.21084476
0.1477122 -0.089040674 0.0027347521 0.034506813 0.23565769 -0.097741306 0.23914835 0.041791033
-0.19021766 0.21527328 0.120384485 0.096718036 -0.0077942237 -0.10922057 0.22860663 -0.15240617
-0.15670137 0.11639409 -0.074158385 -0.09435512 0.07670667 -0.041852456 0.15033995 -0.03577144
0.087960996 0.10957781 -0.19901918 -0.05249887 0.08687808 -0.043330245 0.15475808 0.032657214
-0.12593359 -0.007463771 -0.074133605 -0.23890309 -0.05580272 -0.19906235 0.2352913 0.12880501
0.08098661 -0.033347674 -0.018772095 -0.1805823 0.034703344 -0.17022306 -0.12739941 0.21379156
0.118693694 0.013701011 0.084250346 -0.07497371 0.007589704 0.023384985 -0.28669697 -0.091002956
0.20203464 0.046766583 -0.19243741 -0.180991 -0.16899613 0.2745577 -0.08478778 0.20696643
0.21799727 -0.07230815 -0.20606117 -0.06509004 -0.12170231 -0.17654884 -0.0781891 0.17633471
0.22144145 -0.17657998 -0.0002117692 -0.2007038 -0.052971523 -0.14627355 0.0312749 -0.1523052
0.047592834 0.12455467 -0.08598748 0.031198947 -0.017348425 0.105361044 -0.23388419 -0.017213294
0.12912574 -0.10872791 0.24917673 -0.066292435 0.0411815 -0.17809337 0.035641525 -0.2626141
0.035296742 -0.012730212 0.26407126 -0.075319216 0.29482725 -0.22035713 0.054830365 -0.2277969
-0.16743343 -0.1455927 0.013795394 -0.24933809 -0.09398313 -0.24658482 -0.08340498 -0.25006858
0.28742772 0.017617807 -0.1519539 -0.04695857 0.21683353 -0.16859986 -0.2035269 0.076376274
-0.00955277 -0.19413559 0.17416711 -0.028982202 0.083579294 0.25250104 0.03621561 -0.090588406
-0.16735908 -0.04123979 -0.1842008 -0.04461405 0.07885164 -0.08992538 0.24319494 0.07172649
-0.17817332 0.20783636 -0.016387017 -0.17476779 0.0036267135 -0.12301732 0.2500656 -0.14919424

mean_head.bias f4 [6]
00000000: 5e60 c33b b5c0 bf3c db5c e7bc ce03 96bc
00000010: 3227 903c f24e aabc
0.0059624156 0.02340732 -0.02824252 -0.018312361 0.017596815 -0.020789597

log_std_head.weight f4 [6, 64]
00000000: 48b4 69be 9219 243e 8885 453e f5f8 013e
00000010: e565 9f3e 0ffa bf3d a0f8 9a3b ec5b 8b3e
00000020: ce6b fa3c 195e b43e 687a a43d 081c abbd
00000030: 5de1 593e 0b09 56be c81e 7b3c e479 cebd
00000040: 38eb ffbb d535 823e 2db2 3fbe 56fb 09be
00000050: 6f61 62be 5123 6a3e d99b 7d3e 3671 b43d
00000060: 9e5d 29be a74d 34be fb5a 66bd a562 90bd
00000070: ca12 3dbe d2a4 3a3e 5b04 1d3d 271e 2d3d
00000080: 3b1a 723e c29b 843d e9c9 cfbd fe28 46be
00000090: 1c5c 963c 3150 1c3e 018b 393e 994c c3bc
000000a0: c9fc 953e db8d 5dbe 1d3c ab3e a2c7 7f3d
000000b0: e76a 27be eea4 6cbd 5d92 11be e252 94bd
000000c0: c5f0 e8bd 9d5b c83e dc93 d4bd d96f 36be
000000d0: 9d55 8c3e 85b1 503e fc9e 61be cc52 6bbe
000000e0: f02f 533e f9e2 f1bd a500 eb3d e273 eebd
000000f0: 3591 7f3e 8fd8 90bd b4b2 32be 86f9 f7bc
00000100: effb 5d3e ffb7 be3d bd83 87bd f2d1 bf3e
00000110: 29b2 9d3e 477e 92be 60a5 8abe ed95 963e
00000120: 484b a83e d097 e63d 6b48 903e 06be 943e
00000130: 0ba7 dabd 005f 373e ff15 81be f76a 953d
00000140: e801 a63e 413d 253e 7e25 123e 4ac0 5cbc
00000150: 3421 413e ff3e 1a3e e86b 35be ff0f 763c
00000160: a574 7a3e 06e4 553e 31df d2bd a947 8c3e
00000170: 86c0 603d f239 4839 ecb9 30be 9b66 873e
00000180: 599a 013d 054c 37be c304 973e 6ad0 bb3d
00000190: bb65 193e 157b 7fbe 2300 8c3d 7a98 36be
000001a0: 96d4 37be 60d0 893e 9701 293e b7e5 903e
000001b0: 476e c9bd 21a3 36bd 87a6 3c3d f700 aabd
000001c0: b971 90bd e699 b53e 38ee 5cbe ef34 b53d
000001d0: 3976 2e3d 43b6 f9bd 9666 2ebd 5000 5fbe
000001e0: 271a b4bd 84f3 02be af76 603e 1d05 8c3e
000001f0: a9ba dd3d 21be 59be f071 04bd 04d4 37bd
00000200: b5a2 9b3d f8de ab3d 511d 50be de65 b83e
00000210: 17af c03e 3275 30be 1619 7bbe 5b2b 8c3e
00000220: cd3b cabd 3dc6 b3bb db3f 813e e3d0 f33d
00000230: 49ed 4d3e 9886 bebd 70d5 62be b508 603e
00000240: 2a8b d63d 2988 cf3e 04d5 8e3e 0cb8 9d3e
00000250: 01b1 b23c b71a 45bd 096e 75be 7f42 80be
00000260: c2ab 90bd b5d9 14bc 4e42 943e 48f5 15be
00000270: 4a67 b73c 40e5 973e 2049 61be 02bb 383e
00000280: e77e 1cbe 93b7 7d3e c290 e7b9 0d28 2c3e
00000290: bec9 173e c623 afbd 6905 123e 372b 313e
000002a0: a207 2bbe 70ab e73d a88b b73d 02f6 bebd
000002b0: b33c cebc 531d 24bd 0230 833e d4c1 483e
000002c0: 740f 1c3d 9aeb 403e b4c4 2abe 7a17 833e
000002d0: ff57 98bd f70a acbd bb62 3c3d 11d9 f43d
000002e0: 9544 d6bd 056c 91be f20c 12be 56d1 7ebe
000002f0: 0c86 593e b490 f2bd 4e1c 01be c0d5 e03d
00000300: cdad eb3d 1f07 8cbd 3316 84be 0b15 b43e
00000310: 2055 893e 9e42 9ebd 6008 7f3e 6134 273e
00000320: 09a5 a33e 0f7a b13e 6371 813e a072 873d
00000330: a2f3 cabd c6bf 173e e433 e7bc 6ff5 73bd
00000340: a10d 463e c103 623d 8c03 d2bd ee50 f5bd
00000350: 572a 24be 4c37 ecbd 44b8 57be 5a8a 593d
00000360: 53be 8e3e 1e58 63be 70c2 df3d 81da 843e
00000370: affa 45be 6bef 6bbe 4a53 ac3d f51d 00bd
00000380: 9489 bdbd 84cc 4c3d 6d30 8b3e f2bf dabd
00000390: 1741 423e f381 7e3d 2d79 9d3d 1001 4f3e
000003a0: 1b75 0b3e 5517 683e c2ba 8bbc 49b8 dabd
000003b0: 62a8 5fbd e3eb 47be f2f7 49bd 5934 72be
000003c0: 3809 613e c304 c03e 6e0a 823d 7e5c b2bd
000003d0: 7ac8 9d3e 4b48 d9bd 8d2e 413e 5924 1c3e
000003e0: 24e1 e1bc 355e 2abc 097d 213e 670e 62be
000003f0: 5cac 723e 4251 fdbd b58d 08be de5b f2bd
-0.22822678 0.1602538 0.1928922 0.12692626 0.31132427 0.09373867 0.0047293454 0.27218568
0.030568983 0.3522804 0.0803116 -0.08354956 0.21277376 -0.20901887 0.015327163 -0.100818425
-0.0078100227 0.25431696 -0.18720312 -0.13474783 -0.2210748 0.22865035 0.24766482 0.08810656
-0.16539618 -0.17607747 -0.05623911 -0.07050065 -0.18464199 0.18226936 0.03833423 0.042265084
0.23642819 0.06475021 -0.10145933 -0.19351575 0.018354468 0.15264966 0.18119432 -0.023840236
0.29294422 -0.21636145 0.334443 0.062446244 -0.16349374 -0.057774477 -0.1421599 -0.07242371
-0.11374048 0.39132395 -0.103797644 -0.17816104 0.27409068 0.20380218 -0.22033304 -0.22980803
0.20623755 -0.1181087 0.11474732 -0.11643197 0.24957736 -0.07072555 -0.17450982 -0.03027035
0.21678136 0.09312438 -0.06616924 0.37464863 0.30799988 -0.28611967 -0.27079296 0.2941126
0.32869935 0.11259425 0.2818025 0.29051226 -0.10676392 0.17907333 -0.25212094 0.072957925
0.3242333 0.16136648 0.14272115 -0.01347358 0.18860322 0.15063094 -0.17716944 0.015018462
0.24458559 0.20887765 -0.10296477 0.27398422 0.054871105 0.00019095073 -0.17258424 0.2644547
0.031641338 -0.17900093 0.2949582 0.09170611 0.14980213 -0.24949296 0.068359636 -0.17831603
-0.17952189 0.2691679 0.16504513 0.2830026 -0.09835487 -0.044589166 0.04605725 -0.08300965
-0.07052941 0.35468978 -0.21575248 0.08847987 0.042593215 -0.12192967 -0.042578302 -0.21777463
-0.08794051 -0.12788206 0.21920274 0.2734765 0.10826618 -0.21263935 -0.03233522 -0.04487993
0.07599393 0.08392137 -0.20323683 0.36015218 0.37633583 -0.17232206 -0.24521288 0.27376828
-0.09874687 -0.0054862783 0.2524403 0.11905076 0.20110048 -0.093030155 -0.22151732 0.21878321
0.10475762 0.4053357 0.27896893 0.3080448 0.021812918 -0.04812118 -0.23967756 -0.25050732
-0.0706401 -0.0090851085 0.28956836 -0.14644349 0.02238812 0.2966709 -0.22000551 0.18040088
-0.15282784 0.2477706 -0.00044167606 0.16812153 0.14823052 -0.08551745 0.14259876 0.17301641
-0.1670213 0.11311996 0.08962184 -0.09324266 -0.025175428 -0.04006703 0.25622565 0.1960519
0.038100675 0.18839875 -0.16676599 0.2560385 -0.07438659 -0.08400529 0.045992594 0.11955465
-0.104623 -0.28402725 -0.1426275 -0.24884543 0.21242541 -0.11844006 -0.12608454 0.109782696
0.11507759 -0.06837296 -0.25798187 0.35172305 0.26822758 -0.0772755 0.24905539 0.16328575
0.3196185 0.34663436 0.2528182 0.0661366 -0.099097505 0.1481925 -0.028222986 -0.059560236
0.19341137 0.05517936 -0.10254583 -0.11978327 -0.16031776 -0.115339845 -0.21066386 0.053110458
0.2787958 -0.22201583 0.10925758 0.25947955 -0.1933391 -0.2304055 0.08414324 -0.03127857
-0.092547566 0.04999973 0.27185383 -0.10681142 0.18970142 0.062135648 0.07689128 0.20215249
0.13618891 0.2266515 -0.017056827 -0.10679681 -0.05460394 -0.19523577 -0.049308725 -0.23652782
0.21976173 0.37503633 0.063496456 -0.08709048 0.30817014 -0.10609492 0.18865414 0.1524824
-0.027573176 -0.010398437 0.15770353 -0.22075807 0.23698562 -0.12369014 -0.13335307 -0.118339285

log_std_head.bias f4 [6]
00000000: d92a 703e 3d0b 003e 05ca 623e 30ba 7c3e
00000010: 4fe9 953e 8a5e 873e
0.23453845 0.12504287 0.22147377 0.246804 0.29279563 0.26439315
